…
1, visualize=False, warmup_bias_lr=0.1, warmup_epochs=3.0, warmup_momentum=0.8, weight_decay=0.0005, workers=8, workspace=None\n","Downloading https://ultralytics.com/assets/Arial.ttf to '/root/.config/Ultralytics/Arial.ttf'...\n"]},{"output_type":"stream","name":"stderr","text":["100%|██████████| 755k/755k [00:00<00:00, 14.2MB/s]"]},{"output_type":"stream","name":"stdout","text":["Overriding model.yaml nc=80 with nc=1\n","\n","                   from  n    params  module                                       arguments                     \n","  0                  -1  1      1856  ultralytics.nn.modules.conv.Conv             [3, 64, 3, 2]                 \n","  1                  -1  1     73984  ultralytics.nn.modules.conv.Conv             [64, 128, 3, 2]               \n","  2                  -1  3    279808  ultralytics.nn.modules.block.C2f             [128, 128, 3, True]           \n","  3                  -1  1    295424  ultralytics.nn.modules.conv.Conv             [128, 256, 3, 2]              \n","  4                  -1  6   2101248  ultralytics.nn.modules.block.C2f             [256, 256, 6, True]           \n","  5                  -1  1   1180672  ultralytics.nn.modules.conv.Conv             [256, 512, 3, 2]              \n","  6                  -1  6   8396800  ultralytics.nn.modules.block.C2f             [512, 512, 6, True]           \n"]},{"output_type":"stream","name":"stderr","text":["\n"]},{"output_type":"stream","name":"stdout","text":["  7                  -1  1   2360320  ultralytics.nn.modules.conv.Conv             [512, 512, 3, 2]              \n","  8                  -1  3   4461568  ultralytics.nn.modules.block.C2f             [512, 512, 3, True]           \n","  9                  -1  1    656896  ultralytics.nn.modules.block.SPPF            [512, 512, 5]                 \n"," 10                  -1  1         0  torch.nn.modules.upsampling.Upsample         [None, 2, 'nearest']          \n"," 11             [-1, 6]  1         0  ultralytics.nn.modules.conv.Concat           [1]                           \n"," 12                  -1  3   4723712  ultralytics.nn.modules.block.C2f             [1024, 512, 3]                \n"," 13                  -1  1         0  torch.nn.modules.upsampling.Upsample         [None, 2, 'nearest']          \n"," 14             [-1, 4]  1         0  ultralytics.nn.modules.conv.Concat           [1]                           \n"," 15                  -1  3   1247744  ultralytics.nn.modules.block.C2f             [768, 256, 3]                 \n"," 16                  -1  1    590336  ultralytics.nn.modules.conv.Conv             [256, 256, 3, 2]              \n"," 17            [-1, 12]  1         0  ultralytics.nn.modules.conv.Concat           [1]                           \n"," 18                  -1  3   4592640  ultralytics.nn.modules.block.C2f             [768, 512, 3]                 \n"," 19                  -1  1   2360320  ultralytics.nn.modules.conv.Conv             [512, 512, 3, 2]              \n"," 20             [-1, 9]  1         0  ultralytics.nn.modules.conv.Concat           [1]                           \n"," 21                  -1  3   4723712  ultralytics.nn.modules.block.C2f             [1024, 512, 3]                \n"," 22        [15, 18, 21]  1   5583571  ultralytics.nn.modules.head.Detect           [1, [256, 512, 512]]          \n","Model summary: 209 layers, 43,630,611 parameters, 43,630,595 gradients, 165.4 GFLOPs\n","\n","Transferred 589/595 items from pretrained weights\n","Freezing layer 'model.22.dfl.conv.weight'\n","\u001b[34m\u001b[1mAMP: \u001b[0mrunning Automatic Mixed Precision (AMP) checks...\n","Downloading https://github.com/ultralytics/assets/releases/download/v8.3.0/yolo11n.pt
…
